models/MNISTClassifier/200112-153631-MNISTClassifier.pth (torch_old, 105539 bytes, 8 tensors)

conv1.weight f4 [10, 1, 5, 5]
0	0x3d9d4c7a	0.07680602
1	0xbdc72632	-0.09724082
2	0xbe02d2ba	-0.12775698
3	0xbe82bd54	-0.2553507
4	0xbed12588	-0.40848947
5	0x3d93ec2d	0.07222781
6	0x3e297126	0.16547069
7	0x3ea2a56c	0.31766832
8	0x3eb51f73	0.35375556
9	0x3e4c6ce8	0.1996342
10	0xbe4d24de	-0.20033595
11	0x3e537d8d	0.20653363
12	0x3e384576	0.17995247
13	0x3eab1997	0.3341796
14	0x3ecdb72e	0.40178818
15	0x3d256ed2	0.04038889
16	0xbd276cbd	-0.040875185
17	0xbe44b2ea	-0.19208875
18	0xbd84ac51	-0.06478179
19	0x3e6a9789	0.22909369
20	0x3c04e120	0.008110315
21	0xbe8493cb	-0.25894007
22	0xbe8fde2e	-0.28099197
23	0xbe991b7e	-0.29903787
24	0xbe84fa89	-0.25972393
25	0x3d89ec1f	0.0673449
26	0x3de6d6b5	0.11271421
27	0x3e01a4d9	0.1266054
28	0x3d9cc284	0.076542884
29	0x3d543cae	0.05181568
30	0xbe5127ed	-0.20425387
31	0x3e1a27f7	0.15054308
32	0xbd0bf8b5	-0.034172732
33	0x3d7a1f76	0.06106516
34	0x3e9bfefc	0.30467975
35	0xbe3666f1	-0.17812707
36	0xbe33bd2b	-0.1755263
37	0xbe84b0de	-0.2591619
38	0x3dbd3a53	0.0923964
39	0x3d0400a3	0.03222717
40	0xbe262511	-0.16225077
41	0xbda9eb18	-0.08296794
42	0xbe54ca9e	-0.20780417
43	0xbe1729c3	-0.14762025
44	0x3e518322	0.2046018
45	0xbd89d7e3	-0.0673063
46	0x3c51d1ee	0.012806399
47	0x3e29011b	0.16504328
48	0x3d920d9a	0.071315005
49	0x3dbadaf0	0.0912379
50	0xbe397835	-0.18112262
51	0x3c158121	0.009125025
52	0xbe3ccfab	-0.18438594
53	0x3bd54a6f	0.0065091173
54	0xbe092e2c	-0.1339652
55	0xbe87d023	-0.26525983
56	0xbe9813c0	-0.29702568
57	0xbe9130b8	-0.28357482
58	0xbeb2634b	-0.3484138
59	0x3d37baca	0.04485587
60	0xbe663529	-0.22481216
61	0xbe71f257	-0.23627602
62	0xbdcf3ea9	-0.10119373
63	0xbdc575e0	-0.096416235
64	0x3ec436ae	0.38322967
65	0xbcf659af	-0.030072061
66	0x3dffb1dc	0.12485096
67	0x3c327edf	0.010894506
68	0x3eb1d6cd	0.34734192
69	0x3e11530b	0.14191835
70	0x3eb40cdf	0.3516607
71	0x3dcec5b4	0.10096303
72	0x3d9baaba	0.07600923
73	0x3e7b7b14	0.2455867
74	0x3ed1aee9	0.40953758
75	0xbd69117c	-0.05690144
76	0xbe219ab7	-0.15781675
77	0xbde0c4f2	-0.10975064
78	0xbe03d59b	-0.12874453
79	0xbc66d401	-0.014088632
80	0xbe017204	-0.1264115
81	0xbe8a5f60	-0.2702589
82	0xbe1cdf97	-0.15319668
83	0xbe5119d2	-0.20420006
84	0xbdeb3fa8	-0.11486751
85	0xbd4cf709	-0.05004028
86	0xbe88600c	-0.26635778
87	0xbe488f74	-0.19585973
88	0xbeb6fe4f	-0.35740897
89	0xbe4117b8	-0.18856704
90	0xbd81b6bd	-0.06333683
91	0xbe418327	-0.18897687
92	0xbe960dad	-0.2930731
93	0xbdcd0f6f	-0.10012709
94	0xbe851603	-0.25993356
95	0x3e7d2dde	0.24724528
96	0xbd76560c	-0.060140654
97	0xbbde6244	-0.0067866165
98	0xbdcbf328	-0.09958488
99	0xbd56ddac	-0.052457497
100	0x3e69278f	0.22768997
101	0x3e220ab5	0.15824397
102	0x3e30f4d1	0.1728089
103	0xbe4da40b	-0.20082109
104	0xbe608184	-0.21924406
105	0xbd2a55d1	-0.041585747
106	0x3e54e7b6	0.20791516
107	0x3e8d4e81	0.27598956
108	0xbe9f9bec	-0.31173646
109	0xbe17bc4b	-0.14817922
110	0xbdf59841	-0.11991931
111	0x3d9cd4a2	0.07657744
112	0x3e9fc68c	0.31206167
113	0xbe542f73	-0.20721225
114	0xbd79d5e0	-0.060994983
115	0xbe39b078	-0.18133724
116	0x3e9d906a	0.30774242
117	0x3dbc6a91	0.092000134
118	0xbdeb36f3	-0.1148509
119	0xbb152f52	-0.00227638
120	0xbe14ef5f	-0.14544438
121	0x3da7d880	0.08195591
122	0x3e13e147	0.14441405
123	0xbd5d1b63	-0.053981196
124	0xbe2c155c	-0.16805023
125	0xbe278765	-0.16360243
126	0xbe9f4792	-0.3110929
127	0xbadd628b	-0.001689033
128	0x3d82ebaa	0.063926056
129	0x3d3da817	0.04630288
130	0xbeab1e9a	-0.33421785
131	0x3d4cf73f	0.05004048
132	0x3de7cdd9	0.11318559
133	0x3ebd5023	0.36975202
134	0x3e776883	0.24160962
135	0xbe56c5a5	-0.20973833
136	0x3c845007	0.016151441
137	0x3eaf2ea0	0.3421526
138	0x3e7310e1	0.23736908
139	0x3cdceeaa	0.026969273
140	0xbcb0ec4a	-0.021597046
141	0xbd67d845	-0.056602735
142	0x3e7e27a9	0.24819817
143	0x3e930fe2	0.28723055
144	0x3bc32184	0.005954923
145	0xbdb51ed8	-0.088437736
146	0x3e504be0	0.20341444
147	0x3e962003	0.29321298
148	0x3e89f42b	0.26944098
149	0xbdd3570c	-0.10319337
150	0x3df4bdfa	0.11950298
151	0x3da15d2c	0.07879099
152	0x3e9868ee	0.29767555
153	0x3ec457ad	0.3834814
154	0xbd4dcd70	-0.05024475
155	0xbd6db213	-0.058031153
156	0xbe07bbf9	-0.132553
157	0x3e6d24c3	0.23158555
158	0x3ef4916f	0.47767207
159	0x3dc6a55c	0.096995085
160	0xbeb0d052	-0.34533936
161	0xbe330b4b	-0.17484777
162	0xbe60426a	-0.21900335
163	0x3e70326f	0.23456739
164	0x3ec2d1b7	0.38050625
165	0xbe1cb3ff	-0.15303038
166	0xbeb896dd	-0.360526
167	0xbe737caf	-0.23778032
168	0x3e6d1662	0.2315307
169	0x3ed41807	0.4142458
170	0xbe289354	-0.16462451
171	0xbec1f2ef	-0.37880656
172	0xbe59b2ba	-0.21259585
173	0x3de507d5	0.111831345
174	0x3e8f2019	0.27954176
175	0xbe187d78	-0.14891613
176	0xbcf43527	-0.029810501
177	0xbb889247	-0.0041678282
178	0xbe946dd5	-0.28990045
179	0xbe8b9cf9	-0.27268198
180	0xbd6a354a	-0.057179727
181	0xb990c204	-0.00027610373
182	0xbecd7a93	-0.4013258
183	0xbe86f13d	-0.26355925
184	0xbe987eb9	-0.29784182
185	0x3eb50d71	0.35361817
186	0x3e2fa075	0.17151053
187	0xbe87bbc4	-0.2651044
188	0xbe2dcc45	-0.16972454
189	0x3cacd154	0.02109591
190	0x3e9ed173	0.31019172
191	0x3eb2df18	0.34935832
192	0x3e654201	0.2238846
193	0x3dc311f5	0.095249094
194	0x3e7ea3cb	0.2486717
195	0xbd857be9	-0.065177746
196	0x3ea099c6	0.3136732
197	0x3e4d35d4	0.20040065
198	0x3e861206	0.26185626
199	0xbd5e2ff0	-0.054244936
200	0xbe8abafb	-0.2709578
201	0xbe4a26fe	-0.19741437
202	0x3df7df7e	0.121031746
203	0x3dc86ea2	0.097867265
204	0x3e6b9483	0.23005871
205	0xbd8d6b0e	-0.06905185
206	0x3da046cb	0.07826003
207	0x3edd2bd1	0.43197492
208	0x3e836a09	0.25666836
209	0xbe1d583c	-0.1536569
210	0xbd88c710	-0.06678593
211	0x3f019688	0.5062032
212	0x3e545045	0.20733745
213	0xbdbeee03	-0.09322741
214	0xbe786404	-0.24256903
215	0x3e6e1373	0.23249607
216	0x3ef7b8f7	0.48383304
217	0x3d84078e	0.064467534
218	0xbeac512b	-0.33655676
219	0xbe308f33	-0.17242126
220	0x3e173c8c	0.1476919
221	0x3e439bef	0.19102453
222	0xbe9f612d	-0.31128827
223	0xbebba999	-0.3665283
224	0xbecfc06a	-0.40576488
225	0x3e05171f	0.12997101
226	0x3d249204	0.040178314
227	0x3efbc7ab	0.49175772
228	0x3f104a25	0.56363136
229	0x3eee8186	0.46583194
230	0x3df7f05b	0.12106391
231	0x3e346460	0.17616415
232	0x3ec26b55	0.37972513
233	0x3e6413d5	0.2227319
234	0x3ed7262a	0.42021304
235	0x3da58236	0.080814764
236	0x3e0b1693	0.1358283
237	0xbbd7ae0c	-0.0065820273
238	0xbd60757b	-0.054799538
239	0x3dc87126	0.09787206
240	0xbe80bf86	-0.2514612
241	0xbe859999	-0.26093748
242	0xbefb1647	-0.49040434
243	0xbf06238f	-0.5239801
244	0xbed39423	-0.41323957
245	0xbdbc01b0	-0.09180009
246	0xbedd8337	-0.4326417
247	0xbec27e45	-0.3798696
248	0xbe1c1a70	-0.1524446
249	0xbe0f170d	-0.13973637

conv1.bias f4 [10]
0	0x3d96eca4	0.07369354
1	0x3d161807	0.036644008
2	0x3df2cc10	0.11855328
3	0xbe2bb187	-0.1676694
4	0x3c92202a	0.017837603
5	0xbd32b846	-0.043632768
6	0x3e622891	0.22085787
7	0x3e418db0	0.18901706
8	0x3d9af92d	0.07567058
9	0x3e262058	0.16223276

conv2.weight f4 [24, 10, 5, 5]
0	0xbd5ba1ca	-0.05362109
1	0xbd685dd7	-0.056730118
2	0x3cd128f6	0.025532227
3	0xbd6dc16d	-0.058045793
4	0xbd29f08d	-0.041489173
5	0x3c435926	0.01192311
6	0xbd1b9f95	-0.037993986
7	0xbc599209	-0.013279446
8	0xbd15868e	-0.036505274
9	0x3dacf23b	0.08444639
10	0x3d9e9239	0.077427335
11	0x3e41a5e2	0.18910936
12	0x3e325f63	0.174192
13	0x3e2a138d	0.1660902
14	0x3d052f9e	0.032516114
15	0x3bac72c4	0.0052627046
16	0x3da8e03c	0.08245894
17	0x3e0a86d9	0.13528003
18	0x3d9747f6	0.07386772
19	0xbd672e33	-0.056440543
20	0xbdc57424	-0.09641293
21	0xbcfb5242	-0.030678872
22	0xbde1d507	-0.1102696
23	0xbdc61bb5	-0.096732534
24	0xbc018a38	-0.007906489
25	0xbd3e61b5	-0.0464799
26	0x3ce3cec6	0.027808558
27	0xbda89a6e	-0.0823258
28	0xbd641239	-0.05568144
29	0x3bdcc93e	0.006737857
30	0xbbc4b915	-0.006003509
31	0xbcff19fe	-0.031140324
32	0x3cc6701b	0.024223378
33	0xbd3db114	-0.046311453
34	0xbd88f9d3	-0.06688275
35	0x3d110967	0.035409357
36	0xbb1b1450	-0.002366323
37	0xbda5e768	-0.08100778
38	0x3b5a21e6	0.0033284365
39	0xbdad9f7a	-0.08477683
40	0xbb6ad069	-0.0035829789
41	0x3d89fecd	0.067380525
42	0x3d9c62dd	0.07636044
43	0x3d079f9d	0.033111203
44	0xbd4deba8	-0.050273567
45	0xbc2c7512	-0.010525959
46	0xbc9560b7	-0.018234594
47	0x3c14443b	0.009049471
48	0xbc9dfee3	-0.019286579
49	0x3ceb36b3	0.028712606
50	0xbcd267fc	-0.02568435
51	0x3d29da54	0.04146798
52	0xbdc00751	-0.093763955
53	0xbcefc54f	-0.029268889
54	0xbcda3576	-0.02663682
55	0xbd50919e	-0.05092012
56	0x3b9d7431	0.004805111
57	0xbd1fff55	-0.039061863
58	0x3d881b60	0.06645846
59	0x3c858abc	0.016301505
60	0xbd56377b	-0.052299004
61	0xbd7b178f	-0.061301764
62	0xbd03a7e5	-0.03214254
63	0x3ce3e3e1	0.027818622
64	0x3ca56b30	0.020192713
65	0x3d017927	0.03160968
66	0xbd38eac2	-0.045145757
67	0xbd169896	-0.03676661
68	0xbd2aac3b	-0.041668158
69	0xbc7800b8	-0.01513689
70	0xbc32d92a	-0.010916034
71	0x3d14d296	0.036333643
72	0x3cae78ec	0.021297894
73	0x3c98deac	0.018660866
74	0xbc8eb71d	-0.0174213
75	0xbdafd34a	-0.08585222
76	0xbd7b77ec	-0.061393663
77	0xbd5ddba2	-0.054164536
78	0x3d89e19a	0.06732483
79	0x3d825fb7	0.063659124
80	0x3d5605bb	0.05225156
81	0xbd2a6ada	-0.041605808
82	0xbc1ca381	-0.009560467
83	0xb9ca6243	-0.00038601653
84	0x3d9cdd22	0.07659365
85	0x3d8a9c15	0.067680515
86	0xbdbd1491	-0.09232438
87	0xbdacc35e	-0.08435701
88	0xbe04898b	-0.12943093
89	0xbd33e4b7	-0.04391929
90	0x3d9832ce	0.07431565
91	0xbd8977c6	-0.06712298
92	0xbd6908d3	-0.05689318
93	0xbbc45978	-0.005992111
94	0xbbe48be0	-0.006974682
95	0xbcf4a392	-0.029863153
96	0x3d98e798	0.07466048
97	0x3df702be	0.1206107
98	0x3d2ba016	0.041900717
99	0x3dca53dc	0.09879276
100	0xbcea8532	-0.028627966
101	0xbc7cf6ea	-0.015439728
102	0x3cd36ccb	0.025808712
103	0xbba915b2	-0.005160057
104	0x3d17ef98	0.03709373
105	0xbd2bfcc6	-0.04198911
106	0xbce4a9ca	-0.027912993
107	0xbdc0a432	-0.09406318
108	0xbd62505b	-0.055252414
109	0xbce3f789	-0.027827995
110	0x3d47221d	0.048616517
111	0xbd87c6d2	-0.06629719
112	0xbcf77815	-0.030208627
113	0xbdc0f371	-0.09421433
114	0xbd55fa86	-0.05224087
115	0x3cfe0337	0.031007392
116	0xbd30383f	-0.04302239
117	0x3b6aba7e	0.0035816724
118	0x3d7a35e5	0.061086554
119	0x3c20829f	0.0097967675
120	0xbc9d5075	-0.019203404
121	0x3c2be68b	0.010491977
122	0xbcb03c98	-0.021513268
123	0xbc1e4133	-0.009659099
124	0xbb2689e9	-0.002541179
125	0x3b825431	0.0039773216
126	0x3deadb65	0.114676274
127	0xba3c0d82	-0.00071736437
128	0x3d21e25b	0.03952251
129	0xbdbf6bd2	-0.09346737
130	0x3b9d4d20	0.004800454
131	0x3d85ecee	0.065393314
132	0xbcc7cb95	-0.024389068
133	0xbe01c7fd	-0.12673946
134	0xbdbbd34a	-0.091711596
135	0x3d452417	0.04813012
136	0xbcf059ca	-0.02933969
137	0xbe07fbfa	-0.13279715
138	0xbe1725fa	-0.1476058
139	0xbd881aa3	-0.066457056
140	0xbb31f5d7	-0.0027154589
141	0x3c35417f	0.011062979
142	0xbd84ac81	-0.06478215
143	0xbd8c35c2	-0.06846191
144	0xbd5241ac	-0.05133216
145	0xbc47579a	-0.012166882
146	0xbd34f643	-0.044180166
147	0x3d1074a3	0.035267483
148	0xbcd71db2	-0.026259277
149	0xbd1c8c30	-0.03821963
150	0xbd3dfaaf	-0.04638165
151	0xbcaf5a9e	-0.021405514
152	0xbe2709db	-0.16312353
153	0xbe49fc8b	-0.19725244
154	0xbe0ab2b9	-0.1354474
155	0x3d8d155e	0.06888841
156	0xbd778f7b	-0.060439568
157	0xbd8ddd89	-0.0692702
158	0xbdfb1b7b	-0.12261101
159	0xbdee0b65	-0.11623267
160	0xbbf7e88f	-0.007565565
161	0xbc9ecc52	-0.019384537
162	0xbd41ceb5	-0.04731627
163	0xbc483191	-0.012218849
164	0x3c1b2355	0.009468873
165	0x3aeca0a9	0.0018053252
166	0xbae1c6a0	-0.0017225333
167	0x3a9df141	0.0012050049
168	0x3d8afcfc	0.06786534
169	0x3d111a0d	0.035425235
170	0x3d848006	0.06469731
171	0xbd511d5a	-0.051053382
172	0xbbb3aeb0	-0.005483471
173	0xbd128732	-0.035773464
174	0xbd907892	-0.07054247
175	0xbd85657f	-0.065134995
176	0xbd390b3e	-0.045176737
177	0xbcde58a2	-0.027141873
178	0xbded739b	-0.115943156
179	0xbdaa1337	-0.08304446
180	0xbc1999a9	-0.009375014
181	0x3db97533	0.09055557
182	0x3e02c73c	0.12771314
183	0x3d8a3451	0.0674826
184	0x3ba986bc	0.0051735323
185	0xbc600652	-0.013673382
186	0x3df5db11	0.12004674
187	0x3e0d5475	0.13801749
188	0x3e00fabd	0.12595649
189	0x3e0f31c8	0.13983834
190	0xbd4c51fa	-0.049882866
191	0x3d0d1b32	0.034449764
192	0xbbd995b6	-0.0066401614
193	0xbd00ba1a	-0.03142748
194	0x3c06e172	0.008232461
195	0x3d8ae84f	0.067825906
196	0x3d3c8976	0.04602953
197	0xbcda7ec8	-0.026671782
198	0xbde21e8e	-0.11040984
199	0xbc8235fc	-0.015894882
200	0xbd08c93f	-0.03339505
201	0x3dc81c83	0.09771063
202	0x3ddba01b	0.10723897
203	0x3d3aa414	0.045566633
204	0x3cd03fa4	0.025420971
205	0x3c98e09e	0.018661793
206	0x3c926fe2	0.017875616
207	0xbd7f670e	-0.06235414
208	0xbcbcf5e2	-0.023066465
209	0xbd248d3b	-0.04017375
210	0xbd430a23	-0.04761709
211	0xbda90856	-0.08253543
212	0xbd9b0e26	-0.07571058
213	0xbcfb2915	-0.030659238
214	0xbc005305	-0.007832293
215	0xbc9e3b93	-0.019315517
216	0xb9cfbeb3	-0.000396242
217	0xbcd2119f	-0.025643168
218	0xbca80107	-0.020508302
219	0xbd963e87	-0.07336145
220	0x3c896fd4	0.016776957
221	0xbd9286c4	-0.07154611
222	0xbda5bea3	-0.08093002
223	0x3c94b176	0.018151026
224	0x3d482c4a	0.048870362
225	0xbdf9e56e	-0.12201963
226	0xbdd24cb3	-0.102685355
227	0xbdc0d02d	-0.094147064
228	0xba92477a	-0.0011160218
229	0xbc6a22ee	-0.014290554
230	0xbcf23d77	-0.029570324
231	0xbdf4113b	-0.11917349
232	0xbce810a8	-0.028328255
233	0xbdb2f391	-0.08737863
234	0x3d7dd88c	0.061974093
235	0xbbd326b4	-0.0064438228
236	0x3d58427f	0.05279779
237	0x3e05b2ee	0.13056538
238	0x3df83006	0.12118535
239	0x3dae51e5	0.08511714
240	0xbd645b29	-0.055751
241	0x3e28abe0	0.16471815
242	0x3e0d8f00	0.13824081
243	0x3df40983	0.11915877
244	0x3c6e9516	0.014561912
245	0xbe0d1f5d	-0.13781495
246	0xbc1ec242	-0.009689869
247	0xbb983c86	-0.004645887
248	0xbe108c98	-0.14116132
249	0xbd2247c5	-0.039619226
250	0x3da5b6cf	0.080915086
251	0x3da4c53e	0.080454335
252	0x3dfc4249	0.123173304
253	0x3d992258	0.07477254
254	0x3d165de0	0.03671062
255	0x3c1af78e	0.009458436

conv2.bias f4 [24]
0	0x3d1398b3	0.036034297
1	0xbd8b8e92	-0.068143025
2	0xbd1fd3c7	-0.039020326
3	0xbd3ac263	-0.045595538
4	0xbcfc363c	-0.03078758
5	0xbce7be53	-0.028288996
6	0x3ce1466c	0.0274994
7	0xbcfa3d29	-0.030546742
8	0xbbcd935e	-0.006273671
9	0xbd01cacf	-0.031687554
10	0x3c60c1a9	0.013718047
11	0xbc8b9063	-0.017036622
12	0x3d21b157	0.039475765
13	0x3c36f591	0.011166946
14	0xbd559f11	-0.05215365
15	0x3c06809e	0.008209376
16	0x3d642b41	0.055705313
17	0x3d01b4d9	0.03166661
18	0xbd244158	-0.04010138
19	0xbccfde90	-0.02537468
20	0xbd809dad	-0.06280074
21	0x3c501659	0.012700641
22	0xbc1274f7	-0.008939019
23	0x3d438165	0.047730822

fc1.weight f4 [50, 384]
0	0xbaef9d89	-0.0018281202
1	0x3d6796ae	0.056540184
2	0x3dab810f	0.08374225
3	0xbc8193d9	-0.01581757
4	0x34dc206b	4.100178e-07
5	0x3baa559f	0.005198195
6	0xbd727755	-0.059195835
7	0xbd2682e6	-0.04065218
8	0x3bf161e1	0.0073664044
9	0xbcbdb198	-0.023155972
10	0xbdf932e3	-0.12167909
11	0xbd409ff4	-0.047027543
12	0x3c3a1694	0.011357922
13	0x3cacbf9c	0.02108746
14	0xbc481933	-0.012213039
15	0xb9b86387	-0.00035169368
16	0xbd1fe8ec	-0.03904049
17	0x3a707432	0.0009172588
18	0x3d42d0d1	0.047562424
19	0xbda4f6e0	-0.080549
20	0xbe0814cf	-0.13289188
21	0x3c278925	0.010225569
22	0x3bb0385a	0.0053778114
23	0xbc82a74f	-0.01594892
24	0xbd291ebe	-0.041289084
25	0x3d0bd89b	0.034142118
26	0x3cb40fa0	0.021980107
27	0x3d68db18	0.05684957
28	0xba3fa60a	-0.00073108135
29	0x3d0ce891	0.03440148
30	0x3caf964f	0.021433977
31	0x3d4df662	0.050283797
32	0xbcfa3fcf	-0.030548004
33	0x3d6e1b3e	0.05813145
34	0x3d3990a6	0.045303963
35	0x3c459a30	0.012060687
36	0x3cc7ac61	0.024374189
37	0x3d109da9	0.035306606
38	0x3bc17b6a	0.0059046047
39	0xbd0381d5	-0.03210624
40	0xbd86a62d	-0.06574664
41	0xbd09e7ad	-0.03366821
42	0x3cdeccb3	0.027197218
43	0xbd9d72ef	-0.076879375
44	0xbd2078f0	-0.039177835
45	0x3c2c6b05	0.010523562
46	0xbccd4647	-0.025057925
47	0x3c48a5b5	0.012246539
48	0x3d6525db	0.055944305
49	0x3abb51a2	0.0014291296
50	0xbdc21e31	-0.09478415
51	0xbd8052d3	-0.062657975
52	0x3dbf12c3	0.093297504
53	0xbd860f70	-0.06545913
54	0xbc01e429	-0.007927933
55	0x3c72ab7b	0.014811392
56	0x3c5cc735	0.013475229
57	0xbc219513	-0.009862202
58	0x3d044fab	0.03230254
59	0x3d25b398	0.040454477
60	0x38dfceee	0.00010672012
61	0x3d44a3e7	0.048007872
62	0x3c696595	0.01424541
63	0x3d7b1dce	0.06130772
64	0xbb403105	-0.0029326093
65	0xbd28e0be	-0.041229956
66	0xbd28c9b5	-0.041207988
67	0x3d887ece	0.06664811
68	0x3c8c1d3c	0.017103784
69	0x3cafa35d	0.021440202
70	0x3cf44ba5	0.029821226
71	0xbbcb30a4	-0.006200867
72	0x3d7da8d9	0.061928604
73	0x3c931122	0.017952505
74	0xbdd74d6d	-0.10512815
75	0xbd6b8c82	-0.057507046
76	0xbc9b3ead	-0.018950785
77	0x358b92f6	1.0399078e-06
78	0xbd6d22bc	-0.057894453
79	0x3c70ecec	0.014704924
80	0x3bd3e014	0.006465921
81	0xbbfdc11b	-0.007743967
82	0xbcba271e	-0.02272373
83	0xbdc8d815	-0.098068394
84	0xba5e4519	-0.0008478924
85	0xbc5d4607	-0.013505465
86	0xbd06f630	-0.032949626
87	0xbdc72c9f	-0.09725308
88	0x3d0fe07b	0.03512619
89	0xbd09749e	-0.03355848
90	0x3d31a43c	0.043369517
91	0xbc743233	-0.014904547
92	0xbc0d073f	-0.008607685
93	0x3d608e01	0.054822925
94	0x3d925fb8	0.07147163
95	0x3d39e05f	0.045379993
96	0x3c849816	0.016185801
97	0xbd679426	-0.05653777
98	0xbd0d615c	-0.034516677
99	0xbc7259d6	-0.014791926
100	0x3b2be073	0.0026226311
101	0x3d837184	0.06418136
102	0x3cfc62e7	0.030808879
103	0xbd49013d	-0.049073447
104	0x3d9efe81	0.077633865
105	0xbc030619	-0.007997059
106	0xbd67f71a	-0.05663214
107	0xbcf4ff8a	-0.029907007
108	0xbcb8ceae	-0.02255949
109	0xbd0acb9b	-0.03388558
110	0xbd9958ee	-0.07487665
111	0x3d173cfd	0.036923397
112	0x3d1a3cbf	0.03765559
113	0xbc033420	-0.008008033
114	0xbc2f72c3	-0.010708514
115	0xbd835a08	-0.064136565
116	0x3ca955ef	0.02067086
117	0x3cf2797b	0.029598942
118	0xbcba4afc	-0.022740833
119	0xbd3e2be7	-0.046428587
120	0x3d0b6ef6	0.034041367
121	0xbb83ea92	-0.0040257657
122	0xbd5a6c4d	-0.05332594
123	0xbc78a0b6	-0.015175035
124	0x3c51798f	0.0127853295
125	0x3c27cf1f	0.010242253
126	0x3d15c061	0.03656042
127	0x3d03b11d	0.03215133
128	0xbc9763b7	-0.018480165
129	0x3c2bf539	0.010495477
130	0x3d80d106	0.06289868
131	0x3d94afd1	0.07260097
132	0x3baab48d	0.0052095116
133	0x3c8a050f	0.016848115
134	0xbdc95659	-0.09830923
135	0xbd8ed6e7	-0.06974583
136	0xbcd9f381	-0.02660537
137	0xbd7f722d	-0.062364746
138	0xbda77487	-0.08176523
139	0xbb7e6456	-0.003881713
140	0xbc8c02fc	-0.017091267
141	0xbcbd8442	-0.023134355
142	0xbd83ba73	-0.06432047
143	0x3c99dc22	0.018781725
144	0xbd4bcb7d	-0.04975461
145	0xbc748354	-0.014923889
146	0xbcd5ac08	-0.026083007
147	0xbcafa0c8	-0.021438971
148	0xbd0219b3	-0.03176279
149	0x3c8ee1cb	0.01744165
150	0xbc51d7bf	-0.0128077855
151	0x3c27eb3d	0.010248956
152	0xb99e5a86	-0.00030203554
153	0x3d609483	0.05482913
154	0xbd8bb3a4	-0.06821373
155	0x3c9ec417	0.019380612
156	0x3cf67f13	0.03008989
157	0x3b894691	0.0041893204
158	0xbd55c331	-0.052188102
159	0xbca94cdc	-0.020666532
160	0xbccfd1d3	-0.025368607
161	0xbd7d3d37	-0.061825957
162	0x3c76c052	0.015060501
163	0x3dbe0bd3	0.09279599
164	0x3d4573db	0.04820619
165	0xbd14774e	-0.03624659
166	0x3d1aaf8d	0.037765075
167	0x3c18edd8	0.00933405
168	0x3d2de473	0.042454194
169	0x3d2caa21	0.042154435
170	0xbddc0803	-0.107437156
171	0xbd441de7	-0.04788008
172	0xbc762845	-0.015024249
173	0x3cbb9a87	0.022900833
174	0xbd097689	-0.03356031
175	0xbd98800c	-0.07446298
176	0xbd89a1b5	-0.06720296
177	0xbdb49d57	-0.08819073
178	0xbd3f7fd7	-0.046752777
179	0xbd6d4917	-0.057931032
180	0x3c7b9aea	0.015356759
181	0x3b97fb26	0.0046380935
182	0x3c32b622	0.010907682
183	0x3da75259	0.081700034
184	0x3b43a913	0.0029855415
185	0xbd90c802	-0.070693985
186	0x3d0b1213	0.033952784
187	0x3dc0b139	0.094088025
188	0xbc025171	-0.007953987
189	0xbcffcd75	-0.0312259
190	0xbc858809	-0.016300218
191	0x3b314107	0.0027046816
192	0x3b0ef93d	0.0021816038
193	0x3d92b374	0.07163134
194	0x3d22a4cc	0.039707944
195	0xbc97d5aa	-0.0185345
196	0xbd59237f	-0.053012367
197	0xbd06dbe3	-0.032924544
198	0xbd407847	-0.046989705
199	0xbd7074f5	-0.05870529
200	0xbd48cca7	-0.049023297
201	0xbcb4f491	-0.022089275
202	0xbdaeb88a	-0.08531292
203	0xbdb7cd26	-0.08974676
204	0xbd00e0cf	-0.031464394
205	0xbd5c12c5	-0.053728838
206	0xbd936a06	-0.07197957
207	0xbd3a54a9	-0.045490894
208	0x3d01cb0c	0.03168778
209	0xbd0ecdc1	-0.03486419
210	0x3d097646	0.03356006
211	0x3cca645f	0.024706064
212	0x3d1a9b39	0.037745688
213	0x3b927973	0.0044700443
214	0xba1c6557	-0.00059660285
215	0xbc9ebdc5	-0.019377599
216	0x3d5070c4	0.05088879
217	0x3d24fadd	0.040278304
218	0xbd91f706	-0.07127194
219	0xbc959231	-0.018258186
220	0x3cf63551	0.03005472
221	0x3d1c8a86	0.038218044
222	0x3d148aa8	0.036265045
223	0x3b549956	0.0032440028
224	0x3cd171da	0.025566984
225	0x3d086ad3	0.033305
226	0x3b434341	0.0029794725
227	0xbd9ebd61	-0.07750965
228	0xbb27b37b	-0.0025589156
229	0xba53ef13	-0.0008084636
230	0xbb05c4aa	-0.002041141
231	0xbdd0a92a	-0.101885155
232	0xbd9fe3e0	-0.078071356
233	0x3c55643e	0.013024388
234	0xbd87a502	-0.066232696
235	0x3ba5ed9f	0.005063727
236	0xbcc33e5e	-0.02383345
237	0x3d5e32bb	0.0542476
238	0x3d36b9a7	0.044610646
239	0xbd2495e5	-0.040182013
240	0xbd2b74f8	-0.041859597
241	0xbcec6ca4	-0.028860398
242	0x3c25c879	0.010118597
243	0x3d209a6b	0.039209764
244	0xba8bb849	-0.001065978
245	0x3ccd23bf	0.02504146
246	0x3d9f4400	0.07776642
247	0x3d922fb3	0.07138004
248	0xb68843c2	-4.061004e-06
249	0x3c1f2410	0.009713188
250	0x3cb5b073	0.022178864
251	0xbda24f29	-0.07925255
252	0x3cc7eec5	0.024405846
253	0xbd4d9f6a	-0.050200857
254	0xbcdb308d	-0.02675655
255	0xbd520686	-0.051275752

fc1.bias f4 [50]
0	0x3b5c1a15	0.0033584882
1	0xbd31a435	-0.04336949
2	0xbc082802	-0.00831032
3	0xbc288995	-0.010286708
4	0xbc157353	-0.009121734
5	0xbc6e159d	-0.01453152
6	0x3cfde229	0.03099163
7	0xbd078008	-0.033081084
8	0xbd0dac72	-0.034588285
9	0x3d27c116	0.040955625
10	0x3d436787	0.047706153
11	0xbcc92c0e	-0.02455714
12	0xbd4e44b9	-0.050358508
13	0xbc7486d6	-0.0149247255
14	0x3d09dd6d	0.033658434
15	0xbceb0ef1	-0.028693648
16	0x3ca7b29e	0.020470913
17	0x3d6f2821	0.05838788
18	0x3c828ca8	0.01593621
19	0xbd04a804	-0.032386795
20	0xbafe8fa4	-0.001942147
21	0x3d4e2971	0.05033249
22	0x3d1f7c5d	0.03893696
23	0xbb879ba6	-0.004138428
24	0x3ce79209	0.028267877
25	0x3c174644	0.009233061
26	0x3ce4a8b2	0.027912471
27	0x3b991f41	0.004672915
28	0x3bd903a7	0.00662275
29	0x3d091080	0.033463
30	0x3c853ae5	0.016263435
31	0xbc165018	-0.009174369
32	0xbcabd175	-0.0209739
33	0xbc9ac5a1	-0.018893065
34	0x3cd72e6f	0.026267258
35	0x3cd4c014	0.025970496
36	0x3c7741e9	0.015091398
37	0xbcae5e38	-0.021285161
38	0x3c6e063f	0.014527856
39	0x3cb54d81	0.022131683
40	0x3cf77957	0.030209227
41	0x3d10d1bb	0.035356265
42	0x3a1dc6b4	0.0006018684
43	0xbd1ff53a	-0.039052226
44	0x3c1dfb40	0.009642422
45	0x3d3257c7	0.043540742
46	0x3d2f47c0	0.042793036
47	0xbd1e1a77	-0.038599458
48	0xbbc41216	-0.0059836013
49	0x3b4bc901	0.003109515

fc2.weight f4 [10, 50]
0	0x3e874378	0.26418662
1	0xbe572425	-0.21009882
2	0xbe19c123	-0.15015082
3	0xbe63726a	-0.22211614
4	0xbe836912	-0.256661
5	0x3e4843e6	0.19557151
6	0xbd71fd2c	-0.059079334
7	0xbe074b43	-0.13212304
8	0xbe608c63	-0.21928553
9	0x3e69d384	0.22834593
10	0x3e43b71a	0.19112816
11	0xbdf9ccd6	-0.121972725
12	0x3e6467dd	0.22305246
13	0xbe931dbd	-0.28733626
14	0xbe9bf2e7	-0.30458757
15	0x3e777ccd	0.24168701
16	0x3e8a6a06	0.27034014
17	0xbe60cd9c	-0.21953434
18	0xbd7231e3	-0.059129607
19	0x3e09b0a9	0.13446297
20	0xbdb3235b	-0.08746978
21	0xbe0454cb	-0.12922971
22	0xbcfba6d7	-0.030719204
23	0xbe91b0bb	-0.28455147
24	0xbe76cce5	-0.24101599
25	0x3e614635	0.21999438
26	0x3e1b90e6	0.15191993
27	0xbe3e4008	-0.18579113
28	0xbe6df016	-0.23236117
29	0x3e812160	0.25220776
30	0xbe0edaa3	-0.13950591
31	0xbe514253	-0.20435457
32	0x3e571eee	0.21007892
33	0x3e8fe8ec	0.28107393
34	0x3e07894c	0.13235968
35	0x3d386c59	0.045025203
36	0xbe0c4f8e	-0.13702223
37	0xbe937410	-0.28799486
38	0x3d81e66f	0.0634278
39	0x3e1370c6	0.14398488
40	0x3df6188e	0.12016402
41	0xbe14fa83	-0.14548688
42	0x3e6647ec	0.22488374
43	0xbe49abbe	-0.1969442
44	0xbe77aa8e	-0.24186155
45	0xbdd4bf8f	-0.103880994
46	0x3e83c2de	0.2573461
47	0xbe413899	-0.18869247
48	0xbe329a0c	-0.17441577
49	0xbd330857	-0.043709125
50	0xbe88596c	-0.26630723
51	0xbe757f5a	-0.23974362
52	0xbe65566b	-0.22396247
53	0x3de102f1	0.10986889
54	0x3ea73ba7	0.326627
55	0xbe546af7	-0.20743929
56	0xbe03c3e2	-0.12867692
57	0x3e449f77	0.19201456
58	0xbe25eddd	-0.16204019
59	0x3e37c798	0.17947233
60	0x3e1683de	0.14698741
61	0xbe2e5780	-0.17025566
62	0xbe85c3ac	-0.26125848
63	0x3e1c3fb6	0.15258679
64	0xbddcc8b0	-0.107804656
65	0xbe726543	-0.23671441
66	0x3e2f3246	0.17109022
67	0x3bc28b07	0.0059369835
68	0xbceed4fb	-0.029154291
69	0xbe0c039d	-0.13673253
70	0x3e8bacf0	0.27280378
71	0x3e979ed5	0.29613367
72	0x3e4408d2	0.1914399
73	0xbdfeac6b	-0.1243523
74	0xbc290a10	-0.0103173405
75	0xbe0b2da3	-0.13591628
76	0xbe26b052	-0.16278198
77	0x3e726b37	0.23673712
78	0x3e2a4f0e	0.1663172
79	0x3c9ddd17	0.019270463
80	0x3e066398	0.1312393
81	0x3e5346d0	0.20632482
82	0x3e335d8d	0.17516156
83	0xbe902248	-0.28151155
84	0x3e08fc68	0.13377535
85	0xbe104f22	-0.14092687
86	0x3e87d1f5	0.26527372
87	0x3e6e4d8c	0.2327177
88	0x3e4d5bf1	0.20054604
89	0xbe9dc51e	-0.3081445
90	0xbded5b38	-0.11589664
91	0xbdf90d63	-0.121607564
92	0x3db79c37	0.089653425
93	0xbe3c7769	-0.18404926
94	0x3e2aee2b	0.16692416
95	0x3e4cf455	0.2001508
96	0xbd95831f	-0.073004
97	0xbdb0b796	-0.08628766
98	0x3df06a7b	0.117390595
99	0x3e9ed8bb	0.31024727
100	0x3befd9a3	0.0073196455
101	0x3e58914f	0.21149181
102	0x3dd0befd	0.10192678
103	0x3e63f7e3	0.2226253
104	0x3daf8faa	0.085723236
105	0x3e42d035	0.19024737
106	0x3e15d4a0	0.14631891
107	0xbda3e43b	-0.08002516
108	0x3e3870ba	0.18011752
109	0xbe26f6d7	-0.163051
110	0x3e104713	0.14089613
111	0xbde0cff4	-0.10977164
112	0x3ce8ec62	0.028433029
113	0xbe410ed7	-0.18853317
114	0xbe2ddf12	-0.16979626
115	0xbd7381a9	-0.059449825
116	0x3e542003	0.20715337
117	0xbe1257d1	-0.14291312
118	0x3e94205e	0.28930944
119	0x3de8f3e9	0.11374647
120	0x3d360c5d	0.044445384
121	0xbdcc87b1	-0.099868186
122	0x3e8374a5	0.2567493
123	0x3d5d1626	0.0539762
124	0xbe6db2a2	-0.23212674
125	0x3e57aed8	0.21062791
126	0xbd6ca919	-0.05777845
127	0xbdab118f	-0.083529584
128	0xbe8d76f3	-0.27629814
129	0xbe022f02	-0.12713245
130	0xbd9f6d3c	-0.07784507
131	0x3e89e4d8	0.26932406
132	0xbe98b90f	-0.29828689
133	0x3c8346c0	0.016024947
134	0xbe483b6c	-0.19553918
135	0x3e1607ff	0.14651488
136	0xbd14e658	-0.036352485
137	0x3e28fc87	0.16502582
138	0xbe247ba2	-0.16062787
139	0xbdc1da96	-0.0946552
140	0xbe2d982d	-0.16952582
141	0xbe3c726c	-0.18403023
142	0x3e5ef559	0.2177328
143	0x3dc597d4	0.096480995
144	0x3de64a30	0.11244619
145	0x3e8404ae	0.2578482
146	0xbe447f27	-0.1918913
147	0xbe79c516	-0.24391589
148	0x3c35d567	0.011098242
149	0x3ea6fdb5	0.32615438
150	0xbdb8dc3b	-0.09026381
151	0x3e6e7a69	0.23288883
152	0xbe0ad614	-0.13558227
153	0x3c09eb5c	0.00841793
154	0xbe1279cf	-0.14304279
155	0xbddacf29	-0.10684044
156	0xbe62d503	-0.2215157
157	0xbdcb4d42	-0.09926845
158	0x3e4158e5	0.18881567
159	0x3e327277	0.17426477
160	0xbe648f68	-0.2232033
161	0x3d87c67f	0.06629657
162	0x3e6d2776	0.23159584
163	0xbd47db44	-0.048793092
164	0x3e467a43	0.19382577
165	0xbdd54519	-0.1041357
166	0xbe31596c	-0.17319268
167	0x3e35279b	0.1769089
168	0x3e94b4a1	0.2904406
169	0xbe19c755	-0.15017445
170	0xbdbe23cb	-0.09284171
171	0x3e7557b3	0.23959236
172	0xbdd30d90	-0.10305321
173	0x3e6191de	0.220283
174	0x3e907a19	0.28218153
175	0x3e2dc3ab	0.16969173
176	0x3dd5848a	0.104256704
177	0xbe1e78b2	-0.15475729
178	0xbe6e76b8	-0.23287475
179	0xbd86ae56	-0.06576221
180	0x3e2c65c7	0.168357
181	0x3e803f3b	0.2504824
182	0xbe8c7cf5	-0.27439085
183	0xbd92d46b	-0.07169422
184	0xbe813f2e	-0.25243515
185	0xbe28a47c	-0.16468996
186	0xbd43c2fd	-0.047793377
187	0x3e90b373	0.2826191
188	0xbe685aae	-0.22690842
189	0x3e07b11f	0.1325116
190	0x3cd90bdb	0.026494911
191	0x3e65cc61	0.22441246
192	0xbd6859a6	-0.05672612
193	0xbe61aec7	-0.22039329
194	0xbe4a181e	-0.19735762
195	0x3e7d0d0e	0.24712011
196	0xbe4400b5	-0.19140895
197	0xbe3474d3	-0.1762269
198	0x3e25dc61	0.16197349
199	0xbe3f4c72	-0.18681505
200	0xbe2342b6	-0.15943417
201	0xbe0997ed	-0.13436861
202	0x3e57ac5f	0.21061848
203	0xbe225dd9	-0.15856113
204	0xbdb65fb7	-0.08904975
205	0xbe08fa2e	-0.13376686
206	0x3e4e8e58	0.20171487
207	0xbd70e2d8	-0.058810085
208	0x3e526949	0.20547976
209	0xbe7a43df	-0.24439953
210	0x3e32bfa8	0.17455924
211	0xbe3c6520	-0.18397951
212	0xbe5a50c1	-0.21319868
213	0xbd40229a	-0.046908
214	0x3e3c622c	0.18396825
215	0xbd1402c1	-0.03613544
216	0xbe2dda00	-0.16977692
217	0xbe824029	-0.25439575
218	0xbe2a1812	-0.16610745
219	0xbb959cf1	-0.004565828
220	0x3ea8bfcc	0.3295883
221	0x3d1128bf	0.03543925
222	0xbd6c2518	-0.057652563
223	0xbe96a582	-0.29423147
224	0x3ceea559	0.029131578
225	0xbe41c87b	-0.18924133
226	0xbe4921a9	-0.19641747
227	0x3ea33144	0.31873524
228	0x3e2834bb	0.16426365
229	0xbcb59d42	-0.022169713
230	0xbdee4e1f	-0.11635994
231	0xbe3ccfe7	-0.18438683
232	0x3e5ffd20	0.21873903
233	0x3c4b24e0	0.012398928
234	0xbe4de4ad	-0.20106764
235	0x3e54fd93	0.20799856
236	0xbd11d753	-0.03560574
237	0xbdc73e4b	-0.09728678
238	0x3e87391c	0.26410758
239	0xbe673a54	-0.22580844
240	0xbde16289	-0.11005122
241	0x3e6fedb6	0.23430523
242	0xbe6794ac	-0.22615308
243	0x3e3c71fa	0.18402854
244	0x3e521b5e	0.20518252
245	0xbdd04338	-0.10169071
246	0xbe0744eb	-0.13209884
247	0x3e8e4aea	0.2779153
248	0xbe558e84	-0.20855147
249	0xbde83b19	-0.11339397
250	0xbdf3ddde	-0.11907552
251	0xbe2eca7b	-0.17069428
252	0x3de5563c	0.111980885
253	0xbe099a99	-0.1343788
254	0xbe000048	-0.12500107
255	0xbdfcd18a	-0.12344654

fc2.bias f4 [10]
0	0x3dc41f5d	0.095762946
1	0xbdd83e0f	-0.10558712
2	0x3bdb7708	0.0066975392
3	0xbdd54b18	-0.104147136
4	0x3c2deb3b	0.010615165
5	0x3d637525	0.05553164
6	0xbdbdd2e9	-0.092687435
7	0xbe8efe76	-0.27928513
8	0x3e0ae0cd	0.13562317
9	0xbdf5214e	-0.11969243
