models/default_mnist_model.pth (torch_old, 105539 bytes, 8 tensors)

conv1.weight f4 [10, 1, 5, 5]
00000000: 5cd6 06be 1909 13be 128b 8d3e c6c1 f03d
00000010: 65a7 8c3e 8abc 77be 7c69 5fbc d68d 453d
00000020: b697 8f3e dbdc 2d3e f24c 8abe 04ef f13d
00000030: 4faf d43d b3d7 9a3e 6646 033e a80b 09be
00000040: 8a30 ddbc b6d0 873e 9fcc 6e3e 75b1 46be
00000050: 80cb 163e fb4c a03d a40b 6a3d 66f2 523e
00000060: 559f 6bbe d197 cd3e 2f5b b03e 002b 21be
00000070: 6fcf 8c3c db95 70be d150 343e 722b c63e
00000080: 322b 3bbe 64c3 ef3d 2e71 b43d 947a e8bc
00000090: 0728 ee3a a123 563e 1afc 623d a5f6 ee3d
000000a0: b653 61be c1e1 893e a7d6 563e 3408 93bd
000000b0: e1ac 00be 0263 353e 12c8 593e 2a41 5c3e
000000c0: 2aff 733e 624a f23c 5145 843c 4ab4 a13e
000000d0: f1d3 2c3f 1866 013f 3e15 f33e 1e37 b33e
000000e0: 3216 ad3d a4c1 6e3e d2da e23e 93de 123f
000000f0: 9336 47be a45a 6ebe 35fd c3be ccf1 c6bd
00000100: 3bb8 2c3e c8a5 d1be 7f89 adbe e247 a2be
00000110: cfd6 d8be 47da edbd d7ab dabe e740 a6be
00000120: 80f6 d1be bf6d 7abe 80aa ccbd 427e c13d
00000130: d424 c63e bf85 2c3e 890b 11be 8871 ddbd
00000140: 9906 973e aa49 5e3e d37f 07be 68d5 f6bd
00000150: 697a babe 3d6d ab3e 6b05 863e 9622 70bd
00000160: 4c4f 6ebe 5f5f 5dbe 620a b83e 7dac 123e
00000170: dc9b 8cbe 4769 77be 9d28 5ebe 0419 163e
00000180: a97e 743e 03f4 3c3d 269b 37be ba15 843d
00000190: 52eb c93d 8323 243e a2e1 ff3d fe88 20be
000001a0: 634f 91be 8397 5e3e b4c9 b73e e205 c23e
000001b0: 4b74 ac3c b8f8 033d 813b a73d 7fab 17be
000001c0: 8580 b83d 7fa8 d13d c446 123e c566 b3bd
000001d0: 008a 023e b3af 00bd 1349 3c3e 368e b23e
000001e0: 1c8d b6be bded 49be da27 613d 185f a83d
000001f0: 4327 833e d9f3 2e3d e896 633e be9c 0a3e
00000200: 7658 f1bd 46e9 823d b2d6 c83c 6cfa 24be
00000210: 83cb 13bd 378e 95be 45bb bebd 9b93 b1bd
00000220: c1ef 14be 9a05 5c3d b6b5 a53d 2676 413c
00000230: e66d d1bc 55aa 283e 3987 16be b263 fa3d
00000240: d8e1 4d3e 0993 f53d 8ca9 b5bd 8030 d33d
00000250: 6836 0cbd e4c6 aebd 60f0 d73d 6d68 6d3e
00000260: caa3 eabd 8d17 c9bd cdbe b3be c7fd 14be
00000270: 2d6c 933e ce0f 35be 3fc6 78be e129 f6be
00000280: 82c7 08be c80c b63e 8710 a73e a08f 04bc
00000290: b238 bdbe c2a5 a2bc 8b2d 693e 9b29 e23e
000002a0: 77d8 12bd e4ed de3d f6c4 e1bd 5a11 2f3e
000002b0: f309 c13b f316 9d3e 95f7 b53d 27a0 c7bd
000002c0: d881 9dbd 85b1 2bbe 5c72 d1bd 8e23 603e
000002d0: 60c6 65be 0627 70be 73e8 07be 72ab 05be
000002e0: 9627 203e 747b 6bbd ba96 75be 4b9f 84be
000002f0: 5502 aebe 9d4f d5bd 5dd2 02be 6c13 65bd
00000300: aac8 83be 5495 7dbd 7f0e 15be a07c 8fbc
00000310: f3de 353d d80d f3bd bb0d 91bd 0121 b2bd
00000320: 4e22 02be 418b 30be 7d17 b3bd 734e e4bd
00000330: ce5f 3b3e 4480 a1be f79e 21be 5d66 ca3d
00000340: 7df2 b03e bf6d ecbc a68d 75be 2b1d 293e
00000350: c429 b33e 5952 ea3d 0252 97be 557f 91be
00000360: a7de 4b3d 7f18 7c3e b4c5 a7ba 8033 e7bd
00000370: 2eac bc3d 2eb2 12be bc0a 963e e443 ee3d
00000380: 9d2c 253e 8813 ecbc 841a eebd ddbd 9cbe
00000390: e39d 1abe 0cdc 883e 06e7 80be 28db 9dbe
000003a0: a916 80be 8bb2 a23d 08c0 923e b6d7 4cbe
000003b0: 5b3c 66be 6494 a93d 3663 3d3e b248 c23e
000003c0: 052d 87be 95d6 b53d a38f a73e 21f3 9f3e
000003d0: e6e9 af3c ee99 20be 2593 943e fcdc 643e
000003e0: 4524 443e 4f0a 6ebe
-0.13167709 -0.14358939 0.27645165 0.11755709 0.27471462 -0.24193016 -0.013635989 0.04823097
0.28045434 0.16978781 -0.2701183 0.11813167 0.10385 0.3024269 0.12819824 -0.13383353
-0.027000684 0.2652642 0.23320244 -0.19403632 0.14726067 0.07827183 0.057140008 0.2060028
-0.23009999 0.4015489 0.34444568 -0.1573906 0.017188756 -0.23494665 0.17608954 0.3870502
-0.18278196 0.1170719 0.0881065 -0.028378762 0.0018169888 0.20912029 0.055416204 0.116681375
-0.2200459 0.2693005 0.20980321 -0.07179299 -0.12565948 0.1771355 0.21267727 0.21509233
0.23827806 0.029576484 0.016146334 0.31582862 0.67510897 0.5054641 0.47477144 0.3500299
0.08451499 0.23316056 0.44307572 0.5737087 -0.19454412 -0.23276764 -0.3827912 -0.09714088
0.16867153 -0.40946794 -0.33893964 -0.31695467 -0.42351386 -0.11613899 -0.42709228 -0.32471392
-0.41008377 -0.24455927 -0.09993458 0.0944791 0.38699973 0.16847895 -0.14164557 -0.1081267
0.2949722 0.21707788 -0.13232355 -0.12052423 -0.36421517 0.3348178 0.2617601 -0.058626734
-0.23272437 -0.21618412 0.3594542 0.14323612 -0.2746266 -0.24161254 -0.2169518 0.1465798
0.23876442 0.046131145 -0.17930278 0.064494565 0.09859337 0.16029172 0.12494208 -0.15677258
-0.2838088 0.21737485 0.35896075 0.37895113 0.021051547 0.03221962 0.08165646 -0.14811514
0.09008888 0.10237216 0.14284807 -0.08759836 0.12747955 -0.03141756 0.1838725 0.34874123
-0.35654533 -0.19719596 0.054969646 0.08221263 0.25615892 0.04271302 0.22225535 0.13536355
-0.11784451 0.063921496 0.024516437 -0.16111153 -0.036082756 -0.29210064 -0.093130626 -0.08670732
-0.14544584 0.05371628 0.08091299 0.011807954 -0.025565099 0.16471227 -0.14700021 0.122260466
0.20105684 0.11990935 -0.08870229 0.10311985 -0.034231573 -0.08534029 0.10543895 0.23184367
-0.114570215 -0.09818945 -0.35106507 -0.14549933 0.2879347 -0.1768181 -0.24294375 -0.48078826
-0.13357356 0.35556626 0.32629797 -0.0080908835 -0.36957318 -0.01985443 0.2277128 0.44172367
-0.03585097 0.10885218 -0.110238954 0.17096463 0.0058910786 0.3068157 0.08885113 -0.097473435
-0.07690781 -0.16766937 -0.102268904 0.21888563 -0.22438955 -0.23452386 -0.13272266 -0.13053682
0.15640101 -0.05749078 -0.23983279 -0.2590278 -0.33986154 -0.10415576 -0.1277556 -0.055926725
-0.25739032 -0.06190999 -0.14556311 -0.01751548 0.044402074 -0.11867875 -0.07082697 -0.08697701
-0.12708399 -0.17240621 -0.087447144 -0.111477755 0.18298265 -0.3154317 -0.15783297 0.098828055
0.34560004 -0.028860925 -0.23979816 0.16515033 0.34992802 0.11441488 -0.29554754 -0.2841746
0.049772885 0.2461872 -0.0012800009 -0.1128912 0.09212528 -0.14325783 0.29305065 0.11634043
0.161303 -0.028817907 -0.11626151 -0.30613604 -0.15099292 0.26730382 -0.25176257 -0.30831265
-0.25017288 0.079442106 0.28662133 -0.20004162 -0.22483961 0.082802564 0.18494877 0.37946087
-0.26401535 0.08878819 0.32726774 0.3124018 0.021473836 -0.1568372 0.29018512 0.22349924
0.1915446 -0.2324612

conv1.bias f4 [10]
00000000: 7db4 7b3e eb8f 6f3e ba7d 3b3e 5ff2 033e
00000010: c09d 9f3e 225c b9bd 2e3f 9a3e 8990 96be
00000020: a215 293e b8d6 8a3d
0.2458057 0.23394744 0.1830968 0.12885426 0.3117504 -0.09050776 0.30126327 -0.29407147
0.16512159 0.067792356

conv2.weight f4 [24, 10, 5, 5]
00000000: 910d a0bd 7c02 16bd 9678 90bc 13c8 443b
00000010: 6c51 873c 423f 3dbd 9269 c8bb 2860 3ebd
00000020: cd98 203d 5764 04bd 193c 81bd 7065 15be
00000030: 92b8 04be 2a62 b33c 4e3f 33bc a53c 43bc
00000040: a296 83bd fcee 03bd 932d b5bd c840 90bd
00000050: 66cb 513d 16fc e33d cfe6 1b3d 8339 56bc
00000060: 8143 ca3c 8b09 5abd 0c7d 2c3b d39d 343c
00000070: 928e 9c38 7200 223d c02f 98bb 1529 bbbd
00000080: 340a 3fbd a6ab dfbc faf1 94bc b5d0 9bbc
00000090: 80e9 3bbc bc70 8ebd d0c0 97bd f324 cebc
000000a0: 504c a73c 53d9 1a3d ae8d a83d 499e e13c
000000b0: eea3 75bd 133a 913d c20c a23d db07 e43d
000000c0: a750 8e3d cb0b 36bd 6120 54bd 654b c6bc
000000d0: d716 573d 46f0 6a3d f7b5 5c3c 035c f5bc
000000e0: 1910 0d3d 1a61 283e b5a2 2b3e 30c5 5c3d
000000f0: 7b24 29bd 3ee2 10be 37b7 5abd efea 1e3d
00000100: d382 6a3d 0f36 2b3e 1ba7 e83c 93db adbd
00000110: 8e9a fabd e475 98bd 2104 12bd 75d1 073d
00000120: 62fd 963c c218 04bd 18cc 42bc 1f8e bbbd
00000130: dca6 aabd 16ea 493c 8a04 4c3d 95aa 0d3d
00000140: a6fe 93bd 5ec3 2dbc 2af1 c4bd cdeb 53bd
00000150: 973f 90bd 1f24 97bd 56b3 ecbc b958 613c
00000160: 5d40 22bd db8f c7bd e07f fcbc 9ef5 2dbd
00000170: 0d9c ebbc 496a 563b 799b cf3c dade d2bc
00000180: 45ac 763d cb25 a83d e5eb 763d 536f 67bd
00000190: 9301 3cbd 8abe 4e3d 1b1d 563d 59e2 8a3d
000001a0: 127f c13b 9554 673b 1216 a0bd 3729 843d
000001b0: c448 f5bc 9749 0b3c 7d19 2d3d a85d 1abd
000001c0: b26e cb3c f032 0f3d f92e 233c ac65 043e
000001d0: b9b4 fc3d 4d44 6b3d 7e37 a5bc 3b1c 493b
000001e0: e63c 903c 80a0 9c3d 6e79 8c3c 0483 da3b
000001f0: 8641 973d b60d 373d 74e9 5b3d c078 79ba
00000200: ff6e a6bc 79ca 463d 7dfa fe3a 1fce 8dbc
00000210: d49e 0d3d 1299 4ebc 4070 06bc 5d58 f0bc
00000220: a3d8 773c ff97 203d 2f9a 19bd b613 2b3d
00000230: 327f 17bd 028a 81bc 5e49 4d3c d4f7 123d
00000240: 8652 e53b dc36 b5bb 5666 043d dbfc 75bd
00000250: c55e 36bd 2597 4fbd 15dd 70bd ff25 bebd
00000260: 276b 95bd dad1 63bd 4824 603c ebc9 4bbd
00000270: 9573 d2bd dd70 07be b65b c1bd 88ba 1dbd
00000280: af18 f73d 3beb 123d 81ca 3e3c f48c 82bd
00000290: 8654 eb3b 6fcf 6a3c ce9d 1d3d fbca 203e
000002a0: 66ff eb3b 9663 fdbc 7985 5c3b baaa 0a3d
000002b0: 8fa3 273d 76d8 853d 4957 6e3c 635b 9a3d
000002c0: 8045 193d c106 3abd 7b96 68bd 3c4f 22bd
000002d0: e0af be3d 54c1 033d ecf0 b43d e6fb 713d
000002e0: ea6f 89bc ed6d 21bc 9541 193d ea32 823d
000002f0: d2ad be3d 69e5 ad3d 66e3 d7bd ceec 73bd
00000300: 5523 0d3d 0347 0a3d 8818 d13c e39c dbbc
00000310: 41bd d6bd e74a 8fbd 2b3d a0bb abd6 00bd
00000320: 81e3 9abd 9194 a0bd 306e 8e3b 52b3 f63c
00000330: f204 a53d 5422 0dbd ae61 84bd a770 94bd
00000340: 05ae ffbc f72a 21bb cd36 80bd 958e f7bc
00000350: eadf 4c3c 0c3d 703c 4260 16bd 56d7 a2bc
00000360: dc33 843d 8f18 c0ba f2da 1bbb c721 4dbc
00000370: 1632 ee3c 3403 783b dda9 043d ef29 203d
00000380: a6c7 343c b821 a2bc 73fc 0bbd 367a 5cbd
00000390: f283 ed39 d5de 22bd 60c2 62bd f13e 29bd
000003a0: a7bb 6ebd 6966 0abd 4c55 cebc 66fd abbd
000003b0: bb58 d1bd 5994 3abd 1851 983b c218 12bb
000003c0: b730 22bd 64ec 86bc 1c3f aabd 924f a9bb
000003d0: 640d 83bd 7429 243d 6c30 4b3c bc2a 873b
000003e0: 8ad0 8abd 85e7 c4bc ab99 9f3b f077 1a3d
000003f0: 7407 57bd caa6 bc3c 6990 bd3c d3a1 35bd
-0.078150876 -0.036623463 -0.017635625 0.003002648 0.016518317 -0.046202905 -0.0061161006 -0.04647842
0.039208222 -0.032322254 -0.06310291 -0.14589477 -0.12961033 0.021897394 -0.010940386 -0.011916314
-0.06425215 -0.032210335 -0.08846583 -0.07043606 0.051219366 0.11132066 0.038061913 -0.013075235
0.024690391 -0.053231757 0.002631965 0.011023956 7.4652155e-05 0.039551206 -0.004644364 -0.09138695
-0.04664059 -0.027303528 -0.01818179 -0.019020418 -0.011469245 -0.06955096 -0.07409823 -0.025164103
0.02042213 0.037804913 0.08230148 0.027541297 -0.05997079 0.07091155 0.079125896 0.11134311
0.06948977 -0.04444484 -0.05178869 -0.024205873 0.052512016 0.05735805 0.013471118 -0.029951101
0.03443918 0.16443291 0.16761287 0.05389899 -0.041294556 -0.14148805 -0.053397384 0.03879827
0.05725367 0.1671984 0.028399995 -0.08489146 -0.1223651 -0.07444361 -0.03564847 0.03315874
0.01843137 -0.032250173 -0.01188948 -0.09157967 -0.08332607 0.012323877 0.049809016 0.034586508
-0.07226305 -0.010605661 -0.09616311 -0.05173855 -0.07043379 -0.073799364 -0.028894108 0.013754063
-0.039612163 -0.09744235 -0.030822694 -0.042470567 -0.028760934 0.003271716 0.02534269 -0.02574103
0.060222883 0.082103334 0.06028356 -0.05650265 -0.04589994 0.05047468 0.05227385 0.06781454
0.0059050405 0.0035298218 -0.078167096 0.064531736 -0.029941924 0.008501432 0.042260636 -0.037686974
0.024833057 0.034960687 0.00995993 0.1292941 0.123391576 0.057438184 -0.020168062 0.0030686993
0.017607164 0.076478004 0.017147746 0.0066684503 0.073855445 0.04469081 0.053689435 -0.00095165893
-0.020316599 0.048532937 0.0019453313 -0.0173102 0.0345753 -0.012609737 -0.008205473 -0.02933901
0.015127334 0.039207455 -0.037500557 0.041766845 -0.036986537 -0.015812878 0.012529699 0.03588088
0.006998363 -0.0055302214 0.032324158 -0.060055595 -0.044523973 -0.050681252 -0.05880459 -0.09284591
-0.07295828 -0.055620052 0.013680525 -0.04975311 -0.10275952 -0.13226648 -0.094413206 -0.03850797
0.12065255 0.035868865 0.01164496 -0.06374541 0.007181707 0.014331683 0.038480572 0.15702431
0.0072020767 -0.030931275 0.0033648892 0.033854224 0.040927466 0.06535427 0.014547178 0.07536962
0.037419796 -0.045416597 -0.056784134 -0.039626345 0.09310889 0.032166794 0.08835015 0.05907812
-0.016776998 -0.0098528685 0.03741606 0.06357367 0.09310497 0.08491022 -0.1054142 -0.059552006
0.034457523 0.03375913 0.025524393 -0.026808208 -0.10485316 -0.06996708 -0.0048901043 -0.031454723
-0.07562924 -0.07840837 0.0043466315 0.030114803 0.08057584 -0.034456566 -0.064639434 -0.07248049
-0.031210909 -0.002459226 -0.062604524 -0.030219356 0.012504557 0.014662992 -0.036712892 -0.01987807
0.06455204 -0.0014655757 -0.0023781625 -0.01252026 0.029076617 0.0037843706 0.032388557 0.03910249
0.011033928 -0.019791469 -0.0341763 -0.053827487 0.0004530247 -0.03976329 -0.05536115 -0.04131979
-0.058284428 -0.033789072 -0.025187157 -0.08397941 -0.10222002 -0.04555163 0.004648339 -0.002229259
-0.03959724 -0.016470142 -0.083128184 -0.005166956 -0.063990384 0.040078595 0.012401681 0.0041249674
-0.06778057 -0.024036178 0.0048706136 0.037712038 -0.052497342 0.02302875 0.02314015 -0.04434378

conv2.bias f4 [24]
00000000: 73ae 14bd 62b9 8dbd c465 0a3c 5c80 edbc
00000010: 4603 423c c886 033d ebd8 26bc dcd9 ba3c
00000020: 8dfb 83bd 5888 b9bc 725c 5a3a 9044 33bd
00000030: 99b3 573c f605 493d a036 09bd aea7 81bd
00000040: 9e62 71bd 58f6 4ebd 9219 3ebd 1e27 263d
00000050: 2566 6ebd 7e00 13bd 9080 5d3c 3edf c8bb
-0.03629918 -0.069201246 0.008447114 -0.02899187 0.011841601 0.03211096 -0.010183553 0.022808962
-0.06444464 -0.022648022 0.00083298155 -0.04376656 0.013165378 0.04907795 -0.03349936 -0.063308105
-0.05893194 -0.0505279 -0.046411105 0.04056465 -0.05820288 -0.03588914 0.013519421 -0.006130128

fc1.weight f4 [50, 384]
00000000: ca21 afbb 8da2 cebb e38f 1dbd a3b4 cebc
00000010: f225 0c3d 8b27 013b e64b d2bc bf1f 40bd
00000020: bafb 183d fbac 023c 6068 f13c de72 acbb
00000030: 2685 53bd abbc 333d b8d8 803c 1d11 733c
00000040: 188f f6bc 340e 78bd 718c c1bb 6dd3 d73c
00000050: 27d9 533d 5d2f 023c 34d3 c03c bf8a 4db8
00000060: 6cb2 4e3d 8838 4e3c 68ab 3fbd 9901 2ebd
00000070: cea1 63bd 4364 7dbd e7c8 083c f9c6 cbbb
00000080: efc9 9a3c 6e17 37bd 5330 463b 8507 1ebc
00000090: 9efb 8a3c 7553 4835 4edf 0d3d 2ee3 9c3d
000000a0: d287 dcbc b3fa 2f3b c34b d13c 17b9 a33b
000000b0: 08b6 d83c 2392 5c3d c838 86bc ac4f 0f3d
000000c0: 4832 39bd c3d1 3abd 0f0a 09bd 3392 93bb
000000d0: d1ae 4cbd 649e 0a3d 4671 f7bc afe7 843a
000000e0: 244f 0c3d 7613 febc 46a0 37bd e5b1 c43b
000000f0: 2a90 aebc dde0 22bd dcdf 39bd aa8c 2e3d
00000100: 6173 dfbc 2622 99bc 8767 9f3d 5c36 c33c
00000110: b31f 923b ef83 0e3b 0d01 ab3c 4514 9a3c
00000120: ed95 50bd 1a7b 77bd e517 17bd 609f 0f3d
00000130: 651b 2e3d ef22 1abd 7e2b 1fbd cb47 27bd
00000140: d6b1 d5bc 78a1 14bc 56ee 883d c48e 5cbc
00000150: bb62 903c 084a cfbb 739b a43a 4fa5 183d
00000160: 4113 86bc 9afe 2ebd f483 24bd e292 8abd
00000170: f70a 043d 0b51 783c 31ce 55bd eae4 31bb
00000180: 5080 48bd 31d1 e73c d896 c03c 6dc3 d83c
00000190: 6721 77bc 8258 f2bc 3e81 1b3d e99c 603d
000001a0: c591 0dbc a003 68bd 57df 83bd f10e 323c
000001b0: 0fff 473c 0c4e 40bd de3c 62bd 2563 fabb
000001c0: 28d2 5abc b4ff d13b c467 19bb 22a8 f33c
000001d0: 889e 09bc e93a acbd 2a94 debd 273b 02bd
000001e0: 1feb 1dbb 32cd 50bd 7d12 ffbc 7fea 15bc
000001f0: c215 2d3d 3c01 8f3d 1565 8b3c 4c5d 53bd
00000200: d380 173c e87b 31bd 1391 0abd 3352 593c
00000210: 7e7e a3bd d744 19bd 70f6 07bd 719c 283d
00000220: daa8 9cbd 89fb 1fbd 0b22 95bd aa54 0abd
00000230: f4aa 813d 268c 3e3c 55c6 30bd dbf9 a8bc
00000240: 5228 cbbc 3482 543a 7cb6 b93c d78c 5fbd
00000250: 951b f8bb a0d5 043d b311 b5bd 7b00 d2bc
00000260: 12f5 163d e8b7 363d c87d af3c f64d 773c
00000270: 03bb 283d cf94 cfbc 270b a2ba 1c17 4b3d
00000280: bdb1 8fbc e89e 9cbd 54e5 003d 8b5d 653d
00000290: 1fda 91bb c95b 68bd 83b2 97bd e4db 20bc
000002a0: 930d e73c 5eca 513d 2555 71bd 60a3 cfbc
000002b0: deaf 493d 10bf 803d a9da 1fbd 79ce 37bd
000002c0: 3ec4 dcbc d728 b93c a941 ec3b a3ae 07ba
000002d0: 2467 1b3d d695 c63c 4187 2dbd 579e 2dbd
000002e0: 4cac 8f3d 2dd4 5d3d a98c 70bc 14f7 193c
000002f0: b725 d03c b5a2 493b c0cd aebb d21d 7fbb
00000300: a1c2 52bd 9b7f 283c 621c e9bc ec04 90bc
00000310: 67d0 54bd f29f 7dbd e9b1 9cbc a624 673d
00000320: 4262 3dbb 60a1 3dba 0382 523b ebe9 353d
00000330: 219b fabc 57d3 f23b 466e fd3b 812a 0c3d
00000340: bb6f 53bd e033 e0bc df7c 39bc edf4 19bd
00000350: 50a6 d3bb bc2a 5cbc fb23 e63b e6b6 ba3c
00000360: 7c76 663c 393a d93b 8897 9f3c e62d 0e3d
00000370: 3fbd d13c 0331 58bd 6b1c 27bd 6ea9 a7bc
00000380: 55d2 80bd f431 7dbd e765 8c3c 9393 0a3c
00000390: 317d 4abd 35ff 63bd 573c a1bd 7025 52bd
000003a0: c0e1 6a3c ece7 2bbd e357 f0bc 2e74 52bd
000003b0: e4b0 7a3d 721b 0c3d 28cc 35bd 4b6e bf3c
000003c0: 59b3 3a3c c5a8 4b3c 82a0 cabc 7ec4 0ebc
000003d0: bd90 863d 676c 033d 1d07 44bd 8dfb 8fbd
000003e0: 8494 913a a386 06bd 6ea6 713c 3e8c 28bd
000003f0: e1de 8cbc 7e59 c8bc 3b7d 473b 2c3b e8bc
-0.005344604 -0.0063059987 -0.0384673 -0.025232619 0.034215875 0.0019707407 -0.025670957 -0.046905275
0.03734944 0.007975812 0.029468715 -0.0052627167 -0.051640652 0.0438811 0.01572834 0.014835623
-0.03009753 -0.06056042 -0.0059066345 0.026345933 0.051720764 0.007945863 0.02353821 -4.9005026e-05
0.050463125 0.01258672 -0.046794325 -0.042481992 -0.05557423 -0.061863195 0.00834868 -0.0062187877
0.018895118 -0.04470008 0.0030241206 -0.0096453475 0.016965684 7.462725e-07 0.034636788 0.076605186
-0.026920233 0.002685231 0.025548821 0.0049964297 0.026453987 0.053850304 -0.016384497 0.03498809
-0.045213968 -0.0456102 -0.03345686 -0.0045035123 -0.049971405 0.03384246 -0.03020538 0.0010139848
0.034255162 -0.03101514 -0.044830583 0.006002652 -0.021308977 -0.039765228 -0.045379505 0.042614616
-0.027276697 -0.018693041 0.07783418 0.023829632 0.0044593452 0.002174612 0.020874524 0.018808493
-0.05092423 -0.060420133 -0.036888022 0.0350641 0.042506594 -0.03763097 -0.038859837 -0.04083995
-0.026085775 -0.0090717 0.06686084 -0.013461772 0.017625203 -0.006325964 0.0012558535 0.037267026
-0.016366603 -0.042723276 -0.040164903 -0.06766297 0.03223702 0.015156041 -0.052198593 -0.00271445
-0.048950493 0.028297992 0.023509428 0.026460374 -0.015083647 -0.02958322 0.03796505 0.05483714
-0.008640711 -0.056644082 -0.06439083 0.01086782 0.012206807 -0.04694943 -0.05523383 -0.0076412135
-0.013355769 0.006408656 -0.0023407796 0.029743258 -0.008399613 -0.08409674 -0.10868104 -0.031794693
-0.0024096442 -0.05097694 -0.031136746 -0.0091501465 0.042257078 0.06982657 0.017015973 -0.051602647
0.009247023 -0.043331057 -0.03382976 0.013264227 -0.07983111 -0.037419166 -0.033194005 0.04116482
-0.076493934 -0.039058242 -0.07281884 -0.03377215 0.06331435 0.011630094 -0.043157894 -0.020626953
-0.0247995 0.000810656 0.022670023 -0.054577675 -0.0075716474 0.03243029 -0.088412665 -0.025634995
0.03685481 0.04460898 0.021422282 0.015094271 0.041193973 -0.025339512 -0.0012362943 0.049582586
-0.017540807 -0.076474965 0.031468704 0.055997413 -0.004451051 -0.05672816 -0.07407095 -0.009818051
0.028204715 0.051218383 -0.05891909 -0.025346458 0.049239986 0.06286442 -0.03902689 -0.044874642
-0.026949044 0.022602482 0.0072099757 -0.0005175864 0.03794016 0.02424137 -0.042365316 -0.042387333
0.07015285 0.054157425 -0.0146819735 0.009397287 0.025408609 0.0030767147 -0.005334586 -0.0038927686
-0.051455144 0.01028433 -0.028455917 -0.017580472 -0.05195656 -0.061920114 -0.019127803 0.056431435
-0.0028897678 -0.00072338246 0.003212095 0.044412535 -0.03059155 0.0074104476 0.007734093 0.034220222
-0.051620226 -0.027368486 -0.0113212755 -0.037587095 -0.006459035 -0.013437923 0.007023332 0.02279229
0.014066335 0.006629255 0.019481435 0.03471174 0.025602935 -0.052781116 -0.040798586 -0.020466533
-0.06290118 -0.061815217 0.017138435 0.008458036 -0.049435798 -0.055663306 -0.07872837 -0.051305234
0.01433605 -0.041969225 -0.029338783 -0.05138033 0.061203852 0.03420586 -0.04438415 0.023368021
0.011395299 0.0124303745 -0.02473474 -0.00871384 0.065705754 0.032085802 -0.047858346 -0.070304014
0.0011106883 -0.032843243 0.014749153 -0.04114937 -0.01719612 -0.024456736 0.0030439633 -0.028348528

fc1.bias f4 [50]
00000000: c13c eabb cc5a 0e3d e028 8cbc f372 b3bc
00000010: 9f3e 41bc c223 103b 9e45 203d da76 d0bc
00000020: 00bd 3a3d 8116 c13c 2ef3 4a3d 5087 afbc
00000030: 7f03 ea3c 566f dc3c 7dc0 32bc 56b1 d53c
00000040: f0b1 3bbd 1fc8 40bd 37be de3c 8fa2 f63c
00000050: a256 18bc 283a a538 2bca 00bb c4a2 e5bc
00000060: 2066 0e3d e7da e63c 15be a13c 3974 e73c
00000070: c472 e5ba 8b17 5abd 24cd 1e3c ef74 813c
00000080: 912a 44bc c7ed 213d 9987 b03b 6aa8 e03c
00000090: 059b b6bb 7504 a53a 0a47 203d e8cd c9bc
000000a0: de08 953d 5ffb 1abd 24df 853b 3346 303d
000000b0: 3ba1 90bc 6e68 343d 1ec8 093d fa62 c3bc
000000c0: 4b86 59bc 5a40 333c
-0.0071483557 0.03475456 -0.017109334 -0.021905398 -0.011794715 0.002199397 0.039128892 -0.025447298
0.0455904 0.023570301 0.04954832 -0.021426827 0.02856612 0.026908558 -0.010910151 0.026085537
-0.04582399 -0.04706585 0.02719031 0.03010681 -0.009297999 7.8786456e-05 -0.0019651751 -0.028031714
0.034765363 0.028180553 0.019743958 0.028253661 -0.0017505516 -0.05324511 0.009692464 0.015802829
-0.011973039 0.039533403 0.0053872583 0.027424056 -0.005572679 0.0012589829 0.039130248 -0.024634317
0.07277082 -0.037837382 0.0040854383 0.043035697 -0.017655006 0.044044904 0.033638112 -0.023850907
-0.013276647 0.010940636

fc2.weight f4 [10, 50]
00000000: 143d a43e 6ecf 04bc 8c66 483e 5b74 98be
00000010: fb3f 483e dd77 f1bd 8174 5fbd cea3 e7bd
00000020: 6e6e 583e a484 c73b e05f 103d 808a 29be
00000030: c93b 8ebc 5d2f 63be 5d2d 563e 83ca 203e
00000040: 3a3f 943e 02d1 a2bd 3f6e 5e3e 9769 86bd
00000050: 0169 063e ebcf 6cbe b20f 3ebe efb6 3dbe
00000060: 227d 6c3e a298 5ebe db89 5a3e 5a63 75bc
00000070: e385 813e c3bd 073e 7b2d 833e 0152 8fbe
00000080: 669f 2cbe bbc5 61be 829d fbbd 06a9 853e
00000090: fb9d 683e 728e 98bd 82a3 d6bd a1b9 ef3c
000000a0: 52ff 26be 37ac 433d 553a 6ebd fac7 93be
000000b0: 5ce6 babc 18f3 fa3d 3261 993d 467e 573e
000000c0: d509 7a3e 9e19 babc b145 a63c 9899 6bbe
000000d0: c046 92be a449 38be b494 1cbe 994e 2d3e
000000e0: 4b42 d4bd fae9 8c3e 97b1 30be 0d49 9ebd
000000f0: a2fd 36be b8b1 2abe f60a d53d c195 493e
00000100: f6c3 05be 75c0 5cbe d449 6abd 56e2 8fbe
00000110: 878d 40be 123c 90be 8134 2f3e e5a9 9fbe
00000120: 06e2 6c3e b258 273e 5f6d 8e3e 75c8 303e
00000130: ba8a 0cbe 558b 763e 129f 893e 4a65 26be
00000140: 0561 fabd e2ac 493e 6353 893e d2db 6a3e
00000150: 5181 4a3e 2459 3abe db18 8a3e 4bdc 12be
00000160: 6525 08be e333 8dbd be9f 6e3e 4822 313e
00000170: 46c1 02be b84a 183e 66db 153d 7781 823c
00000180: b5e8 e03d e4d7 403e 2756 b8bd 69c1 80be
00000190: 25bb e0bd d2a4 0e3e d8c7 62be 4a2b 1dbe
000001a0: f299 dfbd 230f a5bd 186f 14be f8a8 67be
000001b0: 1b53 7c3e b6cf aebc fe84 38be 1670 473e
000001c0: 0edc 4abe 6571 553e 1503 4e3e 5b5d 0a3e
000001d0: fbee c4bd 0e7b 41be 894c 773e c775 e43c
000001e0: ce24 f6bc 46a0 8cbe 568b 18be 4e06 523e
000001f0: 07a6 0ebe b480 853e 19d2 d4bd e3a2 123e
00000200: fe42 373e 7921 50be ea7e 2ebd bf3e 34be
00000210: 4a08 4fbe 841b e0bc e1aa 483e 6f1d 683e
00000220: 6a37 923e 2184 443e 11cf 7e3e 9e63 1bbe
00000230: b747 29be d003 fb3d 9885 733e 3dfd 293e
00000240: 44b1 c63d 1bf7 653d 5d7c 05be 333f 453e
00000250: 9d35 1dbe 19dd f93d afcb c63d 0798 dcbd
00000260: 0c7f 8bbe 8af4 473e bc36 89be c7ef 87bd
00000270: 60ae 96bd 029d a33e 0895 043e 19ee d5bd
00000280: bfb5 61bc 173f 773e 37d6 a83e 9b39 0fbe
00000290: bca0 7c3d e983 523e 1b0e e7bd e5d6 233e
000002a0: 1a8d c3bd 4ee3 f6bc 239f 5a3e 5a08 693e
000002b0: 7c33 44be e049 13bd e377 f0bc ceab 513e
000002c0: eaf1 8dbe fc5f 0dbe f9f0 bb3a 7d36 29be
000002d0: 2502 6cbd 7a63 033e 8fbe 01bd 2776 71be
000002e0: 51f2 023d 64d3 6ebe 8f7e 6f3e d009 4dbe
000002f0: 81d0 55be c4ee df3c 2c9c 2cbe 35ef 53be
00000300: 2c3f 573e e9d3 613e fd2f 6b3d af34 473e
00000310: b306 103e 2c28 dbbd 2a9c 6c3c 4b95 573e
00000320: ca83 46bd ad11 9f3e e9cb 4e3e 9ecd 073e
00000330: 5dbc 2a3e 853f e33d 4927 0ebd 2e29 1dbd
00000340: 2353 c0bd 819b f6bd 0ab9 6d3e b140 a7bd
00000350: ed1b a0be ed33 d33d 46a1 87be 91b3 643c
00000360: 5fc9 41be b57c 773e 1fbf 2bbd b640 98be
00000370: e0a8 78be 99d8 a43c c241 073e 3e8c 07be
00000380: 0d4d 8f3b 5fa3 0fbe 8ed8 8dbe 7ce0 073b
00000390: 43ae a2bc 7a78 463e 3981 f5bd a901 7d3e
000003a0: ce9c 31be 892f 893e a779 873e f037 2ebd
000003b0: 8bda 03bd 43fe 9e3e da25 30bc 47ca 973d
000003c0: 6ccf 5d3e 1419 353e 6753 54be 6af8 9fbe
000003d0: 2b3a 04be d13f afbe 0297 2fbe 3f3c 463e
000003e0: 8adc 5ebe 3122 a6be 89fa b5bd d17b 5ebe
000003f0: 5c1c 433e 63c3 173e 31ed 153e 5afd 0dbe
0.3207785 -0.008106096 0.19570369 -0.29776272 0.19555657 -0.1179044 -0.054554466 -0.1131054
0.21135876 0.00608881 0.035247684 -0.1655674 -0.017362492 -0.22186036 0.20915742 0.15702252
0.28954488 -0.07950021 0.21721743 -0.065631084 0.13125993 -0.2312619 -0.18560675 -0.18526815
0.2309461 -0.21737912 0.2134165 -0.014977301 0.2529746 0.13255982 0.25620636 -0.27992252
-0.1685768 -0.22048084 -0.122859016 0.26105517 0.22716515 -0.07449044 -0.104804054 0.02926332
-0.16308334 0.04777166 -0.0581611 -0.28863508 -0.022814922 0.12253398 0.07489242 0.21044263
0.24417813 -0.022717293 0.020296903 -0.2300781 -0.28569603 -0.17996842 -0.152911 0.16924514
-0.10364207 0.2752226 -0.17255245 -0.07728777 -0.1787019 -0.16669357 0.10402481 0.19686033
-0.13063034 -0.21557792 -0.057199314 -0.28102368 -0.18803988 -0.2817083 0.17109872 -0.31184307
0.23133096 0.16342428 0.2781782 0.17263968 -0.13724795 0.24076588 0.26879174 -0.16249576
-0.12225536 0.19694856 0.26821432 0.22935417 0.19775893 -0.18198067 0.26972088 -0.14341848
-0.13295515 -0.06894662 0.23303124 0.17298234 -0.1276904 0.14872253 0.036586188 0.015930874
0.10981885 0.18832356 -0.09000807 -0.2514756 -0.10973195 0.13930061 -0.22146547 -0.15348545
-0.109180346 -0.08059528 -0.14495504 -0.2262305 0.24641077 -0.021339279 -0.18019482 0.19476351
-0.19810507 0.20844038 0.20118363 0.13512175 -0.096158944 -0.18894598 0.2415029 0.027888192
-0.030046847 -0.2746603 -0.14896902 0.20510218 -0.13930522 0.26074755 -0.103916354 0.14319949
0.17896649 -0.20325269 -0.042601503 -0.1760206 -0.20218006 -0.02735687 0.19596435 0.22667478
0.28557903 0.19191028 0.24883677 -0.1517472 -0.16531263 0.122565866 0.2378143 0.16600509
0.097017795 0.05614386 -0.13035722 0.1926239 -0.15352483 0.12200374 0.09706818 -0.107711844
-0.27245367 0.19526878 -0.26799572 -0.06637531 -0.07357478 0.31955725 0.12947476 -0.10445804
-0.013776242 0.2414516 0.32975933 -0.13986818 0.061676726 0.20558132 -0.11281987 0.15999945
-0.09548397 -0.030137684 0.21349768 0.22757092 -0.19160265 -0.035959125 -0.029354041 0.20475695
-0.27723628 -0.13806146 0.0014338783 -0.16524692 -0.057619233 0.12830916 -0.03167587 -0.23580228
0.031969372 -0.23322827 0.23388122 -0.20023274 -0.20880319 0.027335532 -0.1685645 -0.20696719
0.21020192 0.22053494 0.057418812 0.19453691 0.14065056 -0.107010216 0.014441529 0.21053044
-0.048465528 0.31068173 0.20194973 0.1326203 0.16673417 0.110961 -0.034705434 -0.03836935
-0.09390857 -0.12041379 0.23215118 -0.08166636 -0.31271306 0.103126384 -0.2649023 0.013958828
-0.18924473 0.24168666 -0.041930314 -0.2973687 -0.2428317 0.020122813 0.13208678 -0.13237092
0.004373199 -0.14027165 -0.2770428 0.0020733168 -0.019858485 0.19381896 -0.11987538 0.24707665
-0.17344972 0.2679408 0.2646 -0.042533815 -0.03219084 0.3105336 -0.010751212 0.07411628
0.21661156 0.17685348 -0.2073494 -0.31244212 -0.12912814 -0.34228376 -0.17147449 0.1935892
-0.21763816 -0.3244796 -0.088856764 -0.2172692 0.19053787 0.14820628 0.14641263 -0.13866177

fc2.bias f4 [10]
00000000: 9a9f 21be ae82 ae3d f797 5dbe 6a40 3bbe
00000010: a4b4 1e3e 35e4 a5bd 77a5 613c ce1d c3bd
00000020: 243a 223e 4115 633e
-0.1578354 0.08521019 -0.21640001 -0.18286291 0.15498596 -0.08100168 0.01377236 -0.09527169
0.15842491 0.22176076
